…
tamp":1639286239704,"user_tz":180,"elapsed":523,"user":{"displayName":"Eduardo Andres Barseghian","photoUrl":"https://lh3.googleusercontent.com/a/default-user=s64","userId":"06846839735508198169"}},"outputId":"17b62191-dde3-41e0-d51f-15262f374405"},"execution_count":null,"outputs":[{"output_type":"stream","name":"stdout","text":["Model: \"sequential_10\"\n","_________________________________________________________________\n"," Layer (type)                Output Shape              Param #   \n","=================================================================\n"," conv2d_21 (Conv2D)          (None, 26, 26, 28)        280       \n","                                                                 \n"," max_pooling2d_14 (MaxPoolin  (None, 13, 13, 28)       0         \n"," g2D)                                                            \n","                                                                 \n"," conv2d_22 (Conv2D)          (None, 11, 11, 64)        16192     \n","                                                                 \n"," max_pooling2d_15 (MaxPoolin  (None, 5, 5, 64)         0         \n"," g2D)                                                            \n","                                                                 \n"," conv2d_23 (Conv2D)          (None, 3, 3, 64)          36928     \n","                                                                 \n"," flatten_9 (Flatten)         (None, 576)               0         \n","                                                                 \n"," dense_18 (Dense)            (None, 64)                36928     \n","                                                                 \n"," dense_19 (Dense)            (None, 10)                650       \n","                                                                 \n","=================================================================\n","Total params: 90,978\n","Trainable params: 90,978\n","Non-trainable params: 0\n","_________________________________________________________________\n"]}]},{"cell_type":"code","source":["# Compilar y entrenar el modelo CNN\n","\n","model_cnn.compile
…
